[2019-04-16 21:50:53,191 INFO]  * src vocab size = 16216
[2019-04-16 21:50:53,191 INFO]  * tgt vocab size = 22641
[2019-04-16 21:50:53,191 INFO] Building model...
[2019-04-16 21:50:55,925 INFO] NMTModel(
  (encoder): TransformerEncoder(
    (embeddings): Embeddings(
      (make_embedding): Sequential(
        (emb_luts): Elementwise(
          (0): Embedding(16216, 512, padding_idx=1)
        )
        (pe): PositionalEncoding(
          (dropout): Dropout(p=0.1)
        )
      )
    )
    (transformer): ModuleList(
      (0): TransformerEncoderLayer(
        (self_attn): MultiHeadedAttention(
          (dp_v): Dropout(p=0.1)
          (linear_keys): Linear(in_features=512, out_features=512, bias=True)
          (linear_values): Sequential(
            (0): Linear(in_features=512, out_features=512, bias=True)
            (1): Tanh()
            (2): Dropout(p=0.1)
            (3): Linear(in_features=512, out_features=512, bias=True)
            (4): Tanh()
            (5): Dropout(p=0.1)
            (6): Linear(in_features=512, out_features=512, bias=True)
            (7): Tanh()
            (8): Dropout(p=0.1)
          )
          (linear_query): Linear(in_features=512, out_features=512, bias=True)
          (softmax): Softmax()
          (dropout): Dropout(p=0.1)
          (final_linear): Linear(in_features=512, out_features=512, bias=True)
        )
        (feed_forward): PositionwiseFeedForward(
          (w_1): Linear(in_features=512, out_features=2048, bias=True)
          (w_2): Linear(in_features=2048, out_features=512, bias=True)
          (layer_norm): LayerNorm(torch.Size([512]), eps=1e-06, elementwise_affine=True)
          (dropout_1): Dropout(p=0.1)
          (relu): ReLU()
          (dropout_2): Dropout(p=0.1)
        )
        (layer_norm): LayerNorm(torch.Size([512]), eps=1e-06, elementwise_affine=True)
        (dropout): Dropout(p=0.1)
      )
      (1): TransformerEncoderLayer(
        (self_attn): MultiHeadedAttention(
          (dp_v): Dropout(p=0.1)
          (linear_keys): Linear(in_features=512, out_features=512, bias=True)
          (linear_values): Sequential(
            (0): Linear(in_features=512, out_features=512, bias=True)
            (1): Tanh()
            (2): Dropout(p=0.1)
            (3): Linear(in_features=512, out_features=512, bias=True)
            (4): Tanh()
            (5): Dropout(p=0.1)
            (6): Linear(in_features=512, out_features=512, bias=True)
            (7): Tanh()
            (8): Dropout(p=0.1)
          )
          (linear_query): Linear(in_features=512, out_features=512, bias=True)
          (softmax): Softmax()
          (dropout): Dropout(p=0.1)
          (final_linear): Linear(in_features=512, out_features=512, bias=True)
        )
        (feed_forward): PositionwiseFeedForward(
          (w_1): Linear(in_features=512, out_features=2048, bias=True)
          (w_2): Linear(in_features=2048, out_features=512, bias=True)
          (layer_norm): LayerNorm(torch.Size([512]), eps=1e-06, elementwise_affine=True)
          (dropout_1): Dropout(p=0.1)
          (relu): ReLU()
          (dropout_2): Dropout(p=0.1)
        )
        (layer_norm): LayerNorm(torch.Size([512]), eps=1e-06, elementwise_affine=True)
        (dropout): Dropout(p=0.1)
      )
      (2): TransformerEncoderLayer(
        (self_attn): MultiHeadedAttention(
          (dp_v): Dropout(p=0.1)
          (linear_keys): Linear(in_features=512, out_features=512, bias=True)
          (linear_values): Sequential(
            (0): Linear(in_features=512, out_features=512, bias=True)
            (1): Tanh()
            (2): Dropout(p=0.1)
            (3): Linear(in_features=512, out_features=512, bias=True)
            (4): Tanh()
            (5): Dropout(p=0.1)
            (6): Linear(in_features=512, out_features=512, bias=True)
            (7): Tanh()
            (8): Dropout(p=0.1)
          )
          (linear_query): Linear(in_features=512, out_features=512, bias=True)
          (softmax): Softmax()
          (dropout): Dropout(p=0.1)
          (final_linear): Linear(in_features=512, out_features=512, bias=True)
        )
        (feed_forward): PositionwiseFeedForward(
          (w_1): Linear(in_features=512, out_features=2048, bias=True)
          (w_2): Linear(in_features=2048, out_features=512, bias=True)
          (layer_norm): LayerNorm(torch.Size([512]), eps=1e-06, elementwise_affine=True)
          (dropout_1): Dropout(p=0.1)
          (relu): ReLU()
          (dropout_2): Dropout(p=0.1)
        )
        (layer_norm): LayerNorm(torch.Size([512]), eps=1e-06, elementwise_affine=True)
        (dropout): Dropout(p=0.1)
      )
      (3): TransformerEncoderLayer(
        (self_attn): MultiHeadedAttention(
          (dp_v): Dropout(p=0.1)
          (linear_keys): Linear(in_features=512, out_features=512, bias=True)
          (linear_values): Sequential(
            (0): Linear(in_features=512, out_features=512, bias=True)
            (1): Tanh()
            (2): Dropout(p=0.1)
            (3): Linear(in_features=512, out_features=512, bias=True)
            (4): Tanh()
            (5): Dropout(p=0.1)
            (6): Linear(in_features=512, out_features=512, bias=True)
            (7): Tanh()
            (8): Dropout(p=0.1)
          )
          (linear_query): Linear(in_features=512, out_features=512, bias=True)
          (softmax): Softmax()
          (dropout): Dropout(p=0.1)
          (final_linear): Linear(in_features=512, out_features=512, bias=True)
        )
        (feed_forward): PositionwiseFeedForward(
          (w_1): Linear(in_features=512, out_features=2048, bias=True)
          (w_2): Linear(in_features=2048, out_features=512, bias=True)
          (layer_norm): LayerNorm(torch.Size([512]), eps=1e-06, elementwise_affine=True)
          (dropout_1): Dropout(p=0.1)
          (relu): ReLU()
          (dropout_2): Dropout(p=0.1)
        )
        (layer_norm): LayerNorm(torch.Size([512]), eps=1e-06, elementwise_affine=True)
        (dropout): Dropout(p=0.1)
      )
      (4): TransformerEncoderLayer(
        (self_attn): MultiHeadedAttention(
          (dp_v): Dropout(p=0.1)
          (linear_keys): Linear(in_features=512, out_features=512, bias=True)
          (linear_values): Sequential(
            (0): Linear(in_features=512, out_features=512, bias=True)
            (1): Tanh()
            (2): Dropout(p=0.1)
            (3): Linear(in_features=512, out_features=512, bias=True)
            (4): Tanh()
            (5): Dropout(p=0.1)
            (6): Linear(in_features=512, out_features=512, bias=True)
            (7): Tanh()
            (8): Dropout(p=0.1)
          )
          (linear_query): Linear(in_features=512, out_features=512, bias=True)
          (softmax): Softmax()
          (dropout): Dropout(p=0.1)
          (final_linear): Linear(in_features=512, out_features=512, bias=True)
        )
        (feed_forward): PositionwiseFeedForward(
          (w_1): Linear(in_features=512, out_features=2048, bias=True)
          (w_2): Linear(in_features=2048, out_features=512, bias=True)
          (layer_norm): LayerNorm(torch.Size([512]), eps=1e-06, elementwise_affine=True)
          (dropout_1): Dropout(p=0.1)
          (relu): ReLU()
          (dropout_2): Dropout(p=0.1)
        )
        (layer_norm): LayerNorm(torch.Size([512]), eps=1e-06, elementwise_affine=True)
        (dropout): Dropout(p=0.1)
      )
      (5): TransformerEncoderLayer(
        (self_attn): MultiHeadedAttention(
          (dp_v): Dropout(p=0.1)
          (linear_keys): Linear(in_features=512, out_features=512, bias=True)
          (linear_values): Sequential(
            (0): Linear(in_features=512, out_features=512, bias=True)
            (1): Tanh()
            (2): Dropout(p=0.1)
            (3): Linear(in_features=512, out_features=512, bias=True)
            (4): Tanh()
            (5): Dropout(p=0.1)
            (6): Linear(in_features=512, out_features=512, bias=True)
            (7): Tanh()
            (8): Dropout(p=0.1)
          )
          (linear_query): Linear(in_features=512, out_features=512, bias=True)
          (softmax): Softmax()
          (dropout): Dropout(p=0.1)
          (final_linear): Linear(in_features=512, out_features=512, bias=True)
        )
        (feed_forward): PositionwiseFeedForward(
          (w_1): Linear(in_features=512, out_features=2048, bias=True)
          (w_2): Linear(in_features=2048, out_features=512, bias=True)
          (layer_norm): LayerNorm(torch.Size([512]), eps=1e-06, elementwise_affine=True)
          (dropout_1): Dropout(p=0.1)
          (relu): ReLU()
          (dropout_2): Dropout(p=0.1)
        )
        (layer_norm): LayerNorm(torch.Size([512]), eps=1e-06, elementwise_affine=True)
        (dropout): Dropout(p=0.1)
      )
    )
    (layer_norm): LayerNorm(torch.Size([512]), eps=1e-06, elementwise_affine=True)
  )
  (decoder): TransformerDecoder(
    (embeddings): Embeddings(
      (make_embedding): Sequential(
        (emb_luts): Elementwise(
          (0): Embedding(22641, 512, padding_idx=1)
        )
        (pe): PositionalEncoding(
          (dropout): Dropout(p=0.1)
        )
      )
    )
    (transformer_layers): ModuleList(
      (0): TransformerDecoderLayer(
        (self_attn): MultiHeadedAttention(
          (dp_v): Dropout(p=0.1)
          (linear_keys): Linear(in_features=512, out_features=512, bias=True)
          (linear_values): Sequential(
            (0): Linear(in_features=512, out_features=512, bias=True)
            (1): Tanh()
            (2): Dropout(p=0.1)
            (3): Linear(in_features=512, out_features=512, bias=True)
            (4): Tanh()
            (5): Dropout(p=0.1)
            (6): Linear(in_features=512, out_features=512, bias=True)
            (7): Tanh()
            (8): Dropout(p=0.1)
          )
          (linear_query): Linear(in_features=512, out_features=512, bias=True)
          (softmax): Softmax()
          (dropout): Dropout(p=0.1)
          (final_linear): Linear(in_features=512, out_features=512, bias=True)
        )
        (context_attn): MultiHeadedAttention(
          (dp_v): Dropout(p=0.1)
          (linear_keys): Linear(in_features=512, out_features=512, bias=True)
          (linear_values): Sequential(
            (0): Linear(in_features=512, out_features=512, bias=True)
            (1): Tanh()
            (2): Dropout(p=0.1)
            (3): Linear(in_features=512, out_features=512, bias=True)
            (4): Tanh()
            (5): Dropout(p=0.1)
            (6): Linear(in_features=512, out_features=512, bias=True)
            (7): Tanh()
            (8): Dropout(p=0.1)
          )
          (linear_query): Linear(in_features=512, out_features=512, bias=True)
          (softmax): Softmax()
          (dropout): Dropout(p=0.1)
          (final_linear): Linear(in_features=512, out_features=512, bias=True)
        )
        (feed_forward): PositionwiseFeedForward(
          (w_1): Linear(in_features=512, out_features=2048, bias=True)
          (w_2): Linear(in_features=2048, out_features=512, bias=True)
          (layer_norm): LayerNorm(torch.Size([512]), eps=1e-06, elementwise_affine=True)
          (dropout_1): Dropout(p=0.1)
          (relu): ReLU()
          (dropout_2): Dropout(p=0.1)
        )
        (layer_norm_1): LayerNorm(torch.Size([512]), eps=1e-06, elementwise_affine=True)
        (layer_norm_2): LayerNorm(torch.Size([512]), eps=1e-06, elementwise_affine=True)
        (drop): Dropout(p=0.1)
      )
      (1): TransformerDecoderLayer(
        (self_attn): MultiHeadedAttention(
          (dp_v): Dropout(p=0.1)
          (linear_keys): Linear(in_features=512, out_features=512, bias=True)
          (linear_values): Sequential(
            (0): Linear(in_features=512, out_features=512, bias=True)
            (1): Tanh()
            (2): Dropout(p=0.1)
            (3): Linear(in_features=512, out_features=512, bias=True)
            (4): Tanh()
            (5): Dropout(p=0.1)
            (6): Linear(in_features=512, out_features=512, bias=True)
            (7): Tanh()
            (8): Dropout(p=0.1)
          )
          (linear_query): Linear(in_features=512, out_features=512, bias=True)
          (softmax): Softmax()
          (dropout): Dropout(p=0.1)
          (final_linear): Linear(in_features=512, out_features=512, bias=True)
        )
        (context_attn): MultiHeadedAttention(
          (dp_v): Dropout(p=0.1)
          (linear_keys): Linear(in_features=512, out_features=512, bias=True)
          (linear_values): Sequential(
            (0): Linear(in_features=512, out_features=512, bias=True)
            (1): Tanh()
            (2): Dropout(p=0.1)
            (3): Linear(in_features=512, out_features=512, bias=True)
            (4): Tanh()
            (5): Dropout(p=0.1)
            (6): Linear(in_features=512, out_features=512, bias=True)
            (7): Tanh()
            (8): Dropout(p=0.1)
          )
          (linear_query): Linear(in_features=512, out_features=512, bias=True)
          (softmax): Softmax()
          (dropout): Dropout(p=0.1)
          (final_linear): Linear(in_features=512, out_features=512, bias=True)
        )
        (feed_forward): PositionwiseFeedForward(
          (w_1): Linear(in_features=512, out_features=2048, bias=True)
          (w_2): Linear(in_features=2048, out_features=512, bias=True)
          (layer_norm): LayerNorm(torch.Size([512]), eps=1e-06, elementwise_affine=True)
          (dropout_1): Dropout(p=0.1)
          (relu): ReLU()
          (dropout_2): Dropout(p=0.1)
        )
        (layer_norm_1): LayerNorm(torch.Size([512]), eps=1e-06, elementwise_affine=True)
        (layer_norm_2): LayerNorm(torch.Size([512]), eps=1e-06, elementwise_affine=True)
        (drop): Dropout(p=0.1)
      )
      (2): TransformerDecoderLayer(
        (self_attn): MultiHeadedAttention(
          (dp_v): Dropout(p=0.1)
          (linear_keys): Linear(in_features=512, out_features=512, bias=True)
          (linear_values): Sequential(
            (0): Linear(in_features=512, out_features=512, bias=True)
            (1): Tanh()
            (2): Dropout(p=0.1)
            (3): Linear(in_features=512, out_features=512, bias=True)
            (4): Tanh()
            (5): Dropout(p=0.1)
            (6): Linear(in_features=512, out_features=512, bias=True)
            (7): Tanh()
            (8): Dropout(p=0.1)
          )
          (linear_query): Linear(in_features=512, out_features=512, bias=True)
          (softmax): Softmax()
          (dropout): Dropout(p=0.1)
          (final_linear): Linear(in_features=512, out_features=512, bias=True)
        )
        (context_attn): MultiHeadedAttention(
          (dp_v): Dropout(p=0.1)
          (linear_keys): Linear(in_features=512, out_features=512, bias=True)
          (linear_values): Sequential(
            (0): Linear(in_features=512, out_features=512, bias=True)
            (1): Tanh()
            (2): Dropout(p=0.1)
            (3): Linear(in_features=512, out_features=512, bias=True)
            (4): Tanh()
            (5): Dropout(p=0.1)
            (6): Linear(in_features=512, out_features=512, bias=True)
            (7): Tanh()
            (8): Dropout(p=0.1)
          )
          (linear_query): Linear(in_features=512, out_features=512, bias=True)
          (softmax): Softmax()
          (dropout): Dropout(p=0.1)
          (final_linear): Linear(in_features=512, out_features=512, bias=True)
        )
        (feed_forward): PositionwiseFeedForward(
          (w_1): Linear(in_features=512, out_features=2048, bias=True)
          (w_2): Linear(in_features=2048, out_features=512, bias=True)
          (layer_norm): LayerNorm(torch.Size([512]), eps=1e-06, elementwise_affine=True)
          (dropout_1): Dropout(p=0.1)
          (relu): ReLU()
          (dropout_2): Dropout(p=0.1)
        )
        (layer_norm_1): LayerNorm(torch.Size([512]), eps=1e-06, elementwise_affine=True)
        (layer_norm_2): LayerNorm(torch.Size([512]), eps=1e-06, elementwise_affine=True)
        (drop): Dropout(p=0.1)
      )
      (3): TransformerDecoderLayer(
        (self_attn): MultiHeadedAttention(
          (dp_v): Dropout(p=0.1)
          (linear_keys): Linear(in_features=512, out_features=512, bias=True)
          (linear_values): Sequential(
            (0): Linear(in_features=512, out_features=512, bias=True)
            (1): Tanh()
            (2): Dropout(p=0.1)
            (3): Linear(in_features=512, out_features=512, bias=True)
            (4): Tanh()
            (5): Dropout(p=0.1)
            (6): Linear(in_features=512, out_features=512, bias=True)
            (7): Tanh()
            (8): Dropout(p=0.1)
          )
          (linear_query): Linear(in_features=512, out_features=512, bias=True)
          (softmax): Softmax()
          (dropout): Dropout(p=0.1)
          (final_linear): Linear(in_features=512, out_features=512, bias=True)
        )
        (context_attn): MultiHeadedAttention(
          (dp_v): Dropout(p=0.1)
          (linear_keys): Linear(in_features=512, out_features=512, bias=True)
          (linear_values): Sequential(
            (0): Linear(in_features=512, out_features=512, bias=True)
            (1): Tanh()
            (2): Dropout(p=0.1)
            (3): Linear(in_features=512, out_features=512, bias=True)
            (4): Tanh()
            (5): Dropout(p=0.1)
            (6): Linear(in_features=512, out_features=512, bias=True)
            (7): Tanh()
            (8): Dropout(p=0.1)
          )
          (linear_query): Linear(in_features=512, out_features=512, bias=True)
          (softmax): Softmax()
          (dropout): Dropout(p=0.1)
          (final_linear): Linear(in_features=512, out_features=512, bias=True)
        )
        (feed_forward): PositionwiseFeedForward(
          (w_1): Linear(in_features=512, out_features=2048, bias=True)
          (w_2): Linear(in_features=2048, out_features=512, bias=True)
          (layer_norm): LayerNorm(torch.Size([512]), eps=1e-06, elementwise_affine=True)
          (dropout_1): Dropout(p=0.1)
          (relu): ReLU()
          (dropout_2): Dropout(p=0.1)
        )
        (layer_norm_1): LayerNorm(torch.Size([512]), eps=1e-06, elementwise_affine=True)
        (layer_norm_2): LayerNorm(torch.Size([512]), eps=1e-06, elementwise_affine=True)
        (drop): Dropout(p=0.1)
      )
      (4): TransformerDecoderLayer(
        (self_attn): MultiHeadedAttention(
          (dp_v): Dropout(p=0.1)
          (linear_keys): Linear(in_features=512, out_features=512, bias=True)
          (linear_values): Sequential(
            (0): Linear(in_features=512, out_features=512, bias=True)
            (1): Tanh()
            (2): Dropout(p=0.1)
            (3): Linear(in_features=512, out_features=512, bias=True)
            (4): Tanh()
            (5): Dropout(p=0.1)
            (6): Linear(in_features=512, out_features=512, bias=True)
            (7): Tanh()
            (8): Dropout(p=0.1)
          )
          (linear_query): Linear(in_features=512, out_features=512, bias=True)
          (softmax): Softmax()
          (dropout): Dropout(p=0.1)
          (final_linear): Linear(in_features=512, out_features=512, bias=True)
        )
        (context_attn): MultiHeadedAttention(
          (dp_v): Dropout(p=0.1)
          (linear_keys): Linear(in_features=512, out_features=512, bias=True)
          (linear_values): Sequential(
            (0): Linear(in_features=512, out_features=512, bias=True)
            (1): Tanh()
            (2): Dropout(p=0.1)
            (3): Linear(in_features=512, out_features=512, bias=True)
            (4): Tanh()
            (5): Dropout(p=0.1)
            (6): Linear(in_features=512, out_features=512, bias=True)
            (7): Tanh()
            (8): Dropout(p=0.1)
          )
          (linear_query): Linear(in_features=512, out_features=512, bias=True)
          (softmax): Softmax()
          (dropout): Dropout(p=0.1)
          (final_linear): Linear(in_features=512, out_features=512, bias=True)
        )
        (feed_forward): PositionwiseFeedForward(
          (w_1): Linear(in_features=512, out_features=2048, bias=True)
          (w_2): Linear(in_features=2048, out_features=512, bias=True)
          (layer_norm): LayerNorm(torch.Size([512]), eps=1e-06, elementwise_affine=True)
          (dropout_1): Dropout(p=0.1)
          (relu): ReLU()
          (dropout_2): Dropout(p=0.1)
        )
        (layer_norm_1): LayerNorm(torch.Size([512]), eps=1e-06, elementwise_affine=True)
        (layer_norm_2): LayerNorm(torch.Size([512]), eps=1e-06, elementwise_affine=True)
        (drop): Dropout(p=0.1)
      )
      (5): TransformerDecoderLayer(
        (self_attn): MultiHeadedAttention(
          (dp_v): Dropout(p=0.1)
          (linear_keys): Linear(in_features=512, out_features=512, bias=True)
          (linear_values): Sequential(
            (0): Linear(in_features=512, out_features=512, bias=True)
            (1): Tanh()
            (2): Dropout(p=0.1)
            (3): Linear(in_features=512, out_features=512, bias=True)
            (4): Tanh()
            (5): Dropout(p=0.1)
            (6): Linear(in_features=512, out_features=512, bias=True)
            (7): Tanh()
            (8): Dropout(p=0.1)
          )
          (linear_query): Linear(in_features=512, out_features=512, bias=True)
          (softmax): Softmax()
          (dropout): Dropout(p=0.1)
          (final_linear): Linear(in_features=512, out_features=512, bias=True)
        )
        (context_attn): MultiHeadedAttention(
          (dp_v): Dropout(p=0.1)
          (linear_keys): Linear(in_features=512, out_features=512, bias=True)
          (linear_values): Sequential(
            (0): Linear(in_features=512, out_features=512, bias=True)
            (1): Tanh()
            (2): Dropout(p=0.1)
            (3): Linear(in_features=512, out_features=512, bias=True)
            (4): Tanh()
            (5): Dropout(p=0.1)
            (6): Linear(in_features=512, out_features=512, bias=True)
            (7): Tanh()
            (8): Dropout(p=0.1)
          )
          (linear_query): Linear(in_features=512, out_features=512, bias=True)
          (softmax): Softmax()
          (dropout): Dropout(p=0.1)
          (final_linear): Linear(in_features=512, out_features=512, bias=True)
        )
        (feed_forward): PositionwiseFeedForward(
          (w_1): Linear(in_features=512, out_features=2048, bias=True)
          (w_2): Linear(in_features=2048, out_features=512, bias=True)
          (layer_norm): LayerNorm(torch.Size([512]), eps=1e-06, elementwise_affine=True)
          (dropout_1): Dropout(p=0.1)
          (relu): ReLU()
          (dropout_2): Dropout(p=0.1)
        )
        (layer_norm_1): LayerNorm(torch.Size([512]), eps=1e-06, elementwise_affine=True)
        (layer_norm_2): LayerNorm(torch.Size([512]), eps=1e-06, elementwise_affine=True)
        (drop): Dropout(p=0.1)
      )
    )
    (layer_norm): LayerNorm(torch.Size([512]), eps=1e-06, elementwise_affine=True)
  )
  (generator): Sequential(
    (0): Linear(in_features=512, out_features=22641, bias=True)
    (1): Cast()
    (2): LogSoftmax()
  )
)
[2019-04-16 21:50:55,941 INFO] encoder: 30369792
[2019-04-16 21:50:55,941 INFO] decoder: 54735985
[2019-04-16 21:50:55,941 INFO] * number of parameters: 85105777
[2019-04-16 21:50:55,941 INFO] Starting training on GPU: [0]
[2019-04-16 21:50:55,941 INFO] Start training loop and validate every 1000 steps...
…
