[2019-04-15 22:14:29,787 INFO]  * src vocab size = 16216
[2019-04-15 22:14:29,787 INFO]  * tgt vocab size = 22641
[2019-04-15 22:14:29,787 INFO] Building model...
[2019-04-15 22:14:32,443 INFO] NMTModel(
  (encoder): TransformerEncoder(
    (embeddings): Embeddings(
      (make_embedding): Sequential(
        (emb_luts): Elementwise(
          (0): Embedding(16216, 512, padding_idx=1)
        )
        (pe): PositionalEncoding(
          (dropout): Dropout(p=0.1)
        )
      )
    )
    (transformer): ModuleList(
      (0): TransformerEncoderLayer(
        (self_attn): MultiHeadedAttention(
          (linear_keys): Linear(in_features=512, out_features=512, bias=True)
          (linear_values): Sequential(
            (0): Linear(in_features=512, out_features=512, bias=True)
            (1): ReLU()
            (2): Linear(in_features=512, out_features=512, bias=True)
            (3): ReLU()
            (4): Linear(in_features=512, out_features=512, bias=True)
            (5): ReLU()
          )
          (linear_query): Linear(in_features=512, out_features=512, bias=True)
          (softmax): Softmax()
          (dropout): Dropout(p=0.1)
          (final_linear): Linear(in_features=512, out_features=512, bias=True)
        )
        (feed_forward): PositionwiseFeedForward(
          (w_1): Linear(in_features=512, out_features=2048, bias=True)
          (w_2): Linear(in_features=2048, out_features=512, bias=True)
          (layer_norm): LayerNorm(torch.Size([512]), eps=1e-06, elementwise_affine=True)
          (dropout_1): Dropout(p=0.1)
          (relu): ReLU()
          (dropout_2): Dropout(p=0.1)
        )
        (layer_norm): LayerNorm(torch.Size([512]), eps=1e-06, elementwise_affine=True)
        (dropout): Dropout(p=0.1)
      )
      (1): TransformerEncoderLayer(
        (self_attn): MultiHeadedAttention(
          (linear_keys): Linear(in_features=512, out_features=512, bias=True)
          (linear_values): Sequential(
            (0): Linear(in_features=512, out_features=512, bias=True)
            (1): ReLU()
            (2): Linear(in_features=512, out_features=512, bias=True)
            (3): ReLU()
            (4): Linear(in_features=512, out_features=512, bias=True)
            (5): ReLU()
          )
          (linear_query): Linear(in_features=512, out_features=512, bias=True)
          (softmax): Softmax()
          (dropout): Dropout(p=0.1)
          (final_linear): Linear(in_features=512, out_features=512, bias=True)
        )
        (feed_forward): PositionwiseFeedForward(
          (w_1): Linear(in_features=512, out_features=2048, bias=True)
          (w_2): Linear(in_features=2048, out_features=512, bias=True)
          (layer_norm): LayerNorm(torch.Size([512]), eps=1e-06, elementwise_affine=True)
          (dropout_1): Dropout(p=0.1)
          (relu): ReLU()
          (dropout_2): Dropout(p=0.1)
        )
        (layer_norm): LayerNorm(torch.Size([512]), eps=1e-06, elementwise_affine=True)
        (dropout): Dropout(p=0.1)
      )
      (2): TransformerEncoderLayer(
        (self_attn): MultiHeadedAttention(
          (linear_keys): Linear(in_features=512, out_features=512, bias=True)
          (linear_values): Sequential(
            (0): Linear(in_features=512, out_features=512, bias=True)
            (1): ReLU()
            (2): Linear(in_features=512, out_features=512, bias=True)
            (3): ReLU()
            (4): Linear(in_features=512, out_features=512, bias=True)
            (5): ReLU()
          )
          (linear_query): Linear(in_features=512, out_features=512, bias=True)
          (softmax): Softmax()
          (dropout): Dropout(p=0.1)
          (final_linear): Linear(in_features=512, out_features=512, bias=True)
        )
        (feed_forward): PositionwiseFeedForward(
          (w_1): Linear(in_features=512, out_features=2048, bias=True)
          (w_2): Linear(in_features=2048, out_features=512, bias=True)
          (layer_norm): LayerNorm(torch.Size([512]), eps=1e-06, elementwise_affine=True)
          (dropout_1): Dropout(p=0.1)
          (relu): ReLU()
          (dropout_2): Dropout(p=0.1)
        )
        (layer_norm): LayerNorm(torch.Size([512]), eps=1e-06, elementwise_affine=True)
        (dropout): Dropout(p=0.1)
      )
      (3): TransformerEncoderLayer(
        (self_attn): MultiHeadedAttention(
          (linear_keys): Linear(in_features=512, out_features=512, bias=True)
          (linear_values): Sequential(
            (0): Linear(in_features=512, out_features=512, bias=True)
            (1): ReLU()
            (2): Linear(in_features=512, out_features=512, bias=True)
            (3): ReLU()
            (4): Linear(in_features=512, out_features=512, bias=True)
            (5): ReLU()
          )
          (linear_query): Linear(in_features=512, out_features=512, bias=True)
          (softmax): Softmax()
          (dropout): Dropout(p=0.1)
          (final_linear): Linear(in_features=512, out_features=512, bias=True)
        )
        (feed_forward): PositionwiseFeedForward(
          (w_1): Linear(in_features=512, out_features=2048, bias=True)
          (w_2): Linear(in_features=2048, out_features=512, bias=True)
          (layer_norm): LayerNorm(torch.Size([512]), eps=1e-06, elementwise_affine=True)
          (dropout_1): Dropout(p=0.1)
          (relu): ReLU()
          (dropout_2): Dropout(p=0.1)
        )
        (layer_norm): LayerNorm(torch.Size([512]), eps=1e-06, elementwise_affine=True)
        (dropout): Dropout(p=0.1)
      )
      (4): TransformerEncoderLayer(
        (self_attn): MultiHeadedAttention(
          (linear_keys): Linear(in_features=512, out_features=512, bias=True)
          (linear_values): Sequential(
            (0): Linear(in_features=512, out_features=512, bias=True)
            (1): ReLU()
            (2): Linear(in_features=512, out_features=512, bias=True)
            (3): ReLU()
            (4): Linear(in_features=512, out_features=512, bias=True)
            (5): ReLU()
          )
          (linear_query): Linear(in_features=512, out_features=512, bias=True)
          (softmax): Softmax()
          (dropout): Dropout(p=0.1)
          (final_linear): Linear(in_features=512, out_features=512, bias=True)
        )
        (feed_forward): PositionwiseFeedForward(
          (w_1): Linear(in_features=512, out_features=2048, bias=True)
          (w_2): Linear(in_features=2048, out_features=512, bias=True)
          (layer_norm): LayerNorm(torch.Size([512]), eps=1e-06, elementwise_affine=True)
          (dropout_1): Dropout(p=0.1)
          (relu): ReLU()
          (dropout_2): Dropout(p=0.1)
        )
        (layer_norm): LayerNorm(torch.Size([512]), eps=1e-06, elementwise_affine=True)
        (dropout): Dropout(p=0.1)
      )
      (5): TransformerEncoderLayer(
        (self_attn): MultiHeadedAttention(
          (linear_keys): Linear(in_features=512, out_features=512, bias=True)
          (linear_values): Sequential(
            (0): Linear(in_features=512, out_features=512, bias=True)
            (1): ReLU()
            (2): Linear(in_features=512, out_features=512, bias=True)
            (3): ReLU()
            (4): Linear(in_features=512, out_features=512, bias=True)
            (5): ReLU()
          )
          (linear_query): Linear(in_features=512, out_features=512, bias=True)
          (softmax): Softmax()
          (dropout): Dropout(p=0.1)
          (final_linear): Linear(in_features=512, out_features=512, bias=True)
        )
        (feed_forward): PositionwiseFeedForward(
          (w_1): Linear(in_features=512, out_features=2048, bias=True)
          (w_2): Linear(in_features=2048, out_features=512, bias=True)
          (layer_norm): LayerNorm(torch.Size([512]), eps=1e-06, elementwise_affine=True)
          (dropout_1): Dropout(p=0.1)
          (relu): ReLU()
          (dropout_2): Dropout(p=0.1)
        )
        (layer_norm): LayerNorm(torch.Size([512]), eps=1e-06, elementwise_affine=True)
        (dropout): Dropout(p=0.1)
      )
    )
    (layer_norm): LayerNorm(torch.Size([512]), eps=1e-06, elementwise_affine=True)
  )
  (decoder): TransformerDecoder(
    (embeddings): Embeddings(
      (make_embedding): Sequential(
        (emb_luts): Elementwise(
          (0): Embedding(22641, 512, padding_idx=1)
        )
        (pe): PositionalEncoding(
          (dropout): Dropout(p=0.1)
        )
      )
    )
    (transformer_layers): ModuleList(
      (0): TransformerDecoderLayer(
        (self_attn): MultiHeadedAttention(
          (linear_keys): Linear(in_features=512, out_features=512, bias=True)
          (linear_values): Sequential(
            (0): Linear(in_features=512, out_features=512, bias=True)
            (1): ReLU()
            (2): Linear(in_features=512, out_features=512, bias=True)
            (3): ReLU()
            (4): Linear(in_features=512, out_features=512, bias=True)
            (5): ReLU()
          )
          (linear_query): Linear(in_features=512, out_features=512, bias=True)
          (softmax): Softmax()
          (dropout): Dropout(p=0.1)
          (final_linear): Linear(in_features=512, out_features=512, bias=True)
        )
        (context_attn): MultiHeadedAttention(
          (linear_keys): Linear(in_features=512, out_features=512, bias=True)
          (linear_values): Sequential(
            (0): Linear(in_features=512, out_features=512, bias=True)
            (1): ReLU()
            (2): Linear(in_features=512, out_features=512, bias=True)
            (3): ReLU()
            (4): Linear(in_features=512, out_features=512, bias=True)
            (5): ReLU()
          )
          (linear_query): Linear(in_features=512, out_features=512, bias=True)
          (softmax): Softmax()
          (dropout): Dropout(p=0.1)
          (final_linear): Linear(in_features=512, out_features=512, bias=True)
        )
        (feed_forward): PositionwiseFeedForward(
          (w_1): Linear(in_features=512, out_features=2048, bias=True)
          (w_2): Linear(in_features=2048, out_features=512, bias=True)
          (layer_norm): LayerNorm(torch.Size([512]), eps=1e-06, elementwise_affine=True)
          (dropout_1): Dropout(p=0.1)
          (relu): ReLU()
          (dropout_2): Dropout(p=0.1)
        )
        (layer_norm_1): LayerNorm(torch.Size([512]), eps=1e-06, elementwise_affine=True)
        (layer_norm_2): LayerNorm(torch.Size([512]), eps=1e-06, elementwise_affine=True)
        (drop): Dropout(p=0.1)
      )
      (1): TransformerDecoderLayer(
        (self_attn): MultiHeadedAttention(
          (linear_keys): Linear(in_features=512, out_features=512, bias=True)
          (linear_values): Sequential(
            (0): Linear(in_features=512, out_features=512, bias=True)
            (1): ReLU()
            (2): Linear(in_features=512, out_features=512, bias=True)
            (3): ReLU()
            (4): Linear(in_features=512, out_features=512, bias=True)
            (5): ReLU()
          )
          (linear_query): Linear(in_features=512, out_features=512, bias=True)
          (softmax): Softmax()
          (dropout): Dropout(p=0.1)
          (final_linear): Linear(in_features=512, out_features=512, bias=True)
        )
        (context_attn): MultiHeadedAttention(
          (linear_keys): Linear(in_features=512, out_features=512, bias=True)
          (linear_values): Sequential(
            (0): Linear(in_features=512, out_features=512, bias=True)
            (1): ReLU()
            (2): Linear(in_features=512, out_features=512, bias=True)
            (3): ReLU()
            (4): Linear(in_features=512, out_features=512, bias=True)
            (5): ReLU()
          )
          (linear_query): Linear(in_features=512, out_features=512, bias=True)
          (softmax): Softmax()
          (dropout): Dropout(p=0.1)
          (final_linear): Linear(in_features=512, out_features=512, bias=True)
        )
        (feed_forward): PositionwiseFeedForward(
          (w_1): Linear(in_features=512, out_features=2048, bias=True)
          (w_2): Linear(in_features=2048, out_features=512, bias=True)
          (layer_norm): LayerNorm(torch.Size([512]), eps=1e-06, elementwise_affine=True)
          (dropout_1): Dropout(p=0.1)
          (relu): ReLU()
          (dropout_2): Dropout(p=0.1)
        )
        (layer_norm_1): LayerNorm(torch.Size([512]), eps=1e-06, elementwise_affine=True)
        (layer_norm_2): LayerNorm(torch.Size([512]), eps=1e-06, elementwise_affine=True)
        (drop): Dropout(p=0.1)
      )
      (2): TransformerDecoderLayer(
        (self_attn): MultiHeadedAttention(
          (linear_keys): Linear(in_features=512, out_features=512, bias=True)
          (linear_values): Sequential(
            (0): Linear(in_features=512, out_features=512, bias=True)
            (1): ReLU()
            (2): Linear(in_features=512, out_features=512, bias=True)
            (3): ReLU()
            (4): Linear(in_features=512, out_features=512, bias=True)
            (5): ReLU()
          )
          (linear_query): Linear(in_features=512, out_features=512, bias=True)
          (softmax): Softmax()
          (dropout): Dropout(p=0.1)
          (final_linear): Linear(in_features=512, out_features=512, bias=True)
        )
        (context_attn): MultiHeadedAttention(
          (linear_keys): Linear(in_features=512, out_features=512, bias=True)
          (linear_values): Sequential(
            (0): Linear(in_features=512, out_features=512, bias=True)
            (1): ReLU()
            (2): Linear(in_features=512, out_features=512, bias=True)
            (3): ReLU()
            (4): Linear(in_features=512, out_features=512, bias=True)
            (5): ReLU()
          )
          (linear_query): Linear(in_features=512, out_features=512, bias=True)
          (softmax): Softmax()
          (dropout): Dropout(p=0.1)
          (final_linear): Linear(in_features=512, out_features=512, bias=True)
        )
        (feed_forward): PositionwiseFeedForward(
          (w_1): Linear(in_features=512, out_features=2048, bias=True)
          (w_2): Linear(in_features=2048, out_features=512, bias=True)
          (layer_norm): LayerNorm(torch.Size([512]), eps=1e-06, elementwise_affine=True)
          (dropout_1): Dropout(p=0.1)
          (relu): ReLU()
          (dropout_2): Dropout(p=0.1)
        )
        (layer_norm_1): LayerNorm(torch.Size([512]), eps=1e-06, elementwise_affine=True)
        (layer_norm_2): LayerNorm(torch.Size([512]), eps=1e-06, elementwise_affine=True)
        (drop): Dropout(p=0.1)
      )
      (3): TransformerDecoderLayer(
        (self_attn): MultiHeadedAttention(
          (linear_keys): Linear(in_features=512, out_features=512, bias=True)
          (linear_values): Sequential(
            (0): Linear(in_features=512, out_features=512, bias=True)
            (1): ReLU()
            (2): Linear(in_features=512, out_features=512, bias=True)
            (3): ReLU()
            (4): Linear(in_features=512, out_features=512, bias=True)
            (5): ReLU()
          )
          (linear_query): Linear(in_features=512, out_features=512, bias=True)
          (softmax): Softmax()
          (dropout): Dropout(p=0.1)
          (final_linear): Linear(in_features=512, out_features=512, bias=True)
        )
        (context_attn): MultiHeadedAttention(
          (linear_keys): Linear(in_features=512, out_features=512, bias=True)
          (linear_values): Sequential(
            (0): Linear(in_features=512, out_features=512, bias=True)
            (1): ReLU()
            (2): Linear(in_features=512, out_features=512, bias=True)
            (3): ReLU()
            (4): Linear(in_features=512, out_features=512, bias=True)
            (5): ReLU()
          )
          (linear_query): Linear(in_features=512, out_features=512, bias=True)
          (softmax): Softmax()
          (dropout): Dropout(p=0.1)
          (final_linear): Linear(in_features=512, out_features=512, bias=True)
        )
        (feed_forward): PositionwiseFeedForward(
          (w_1): Linear(in_features=512, out_features=2048, bias=True)
          (w_2): Linear(in_features=2048, out_features=512, bias=True)
          (layer_norm): LayerNorm(torch.Size([512]), eps=1e-06, elementwise_affine=True)
          (dropout_1): Dropout(p=0.1)
          (relu): ReLU()
          (dropout_2): Dropout(p=0.1)
        )
        (layer_norm_1): LayerNorm(torch.Size([512]), eps=1e-06, elementwise_affine=True)
        (layer_norm_2): LayerNorm(torch.Size([512]), eps=1e-06, elementwise_affine=True)
        (drop): Dropout(p=0.1)
      )
      (4): TransformerDecoderLayer(
        (self_attn): MultiHeadedAttention(
          (linear_keys): Linear(in_features=512, out_features=512, bias=True)
          (linear_values): Sequential(
            (0): Linear(in_features=512, out_features=512, bias=True)
            (1): ReLU()
            (2): Linear(in_features=512, out_features=512, bias=True)
            (3): ReLU()
            (4): Linear(in_features=512, out_features=512, bias=True)
            (5): ReLU()
          )
          (linear_query): Linear(in_features=512, out_features=512, bias=True)
          (softmax): Softmax()
          (dropout): Dropout(p=0.1)
          (final_linear): Linear(in_features=512, out_features=512, bias=True)
        )
        (context_attn): MultiHeadedAttention(
          (linear_keys): Linear(in_features=512, out_features=512, bias=True)
          (linear_values): Sequential(
            (0): Linear(in_features=512, out_features=512, bias=True)
            (1): ReLU()
            (2): Linear(in_features=512, out_features=512, bias=True)
            (3): ReLU()
            (4): Linear(in_features=512, out_features=512, bias=True)
            (5): ReLU()
          )
          (linear_query): Linear(in_features=512, out_features=512, bias=True)
          (softmax): Softmax()
          (dropout): Dropout(p=0.1)
          (final_linear): Linear(in_features=512, out_features=512, bias=True)
        )
        (feed_forward): PositionwiseFeedForward(
          (w_1): Linear(in_features=512, out_features=2048, bias=True)
          (w_2): Linear(in_features=2048, out_features=512, bias=True)
          (layer_norm): LayerNorm(torch.Size([512]), eps=1e-06, elementwise_affine=True)
          (dropout_1): Dropout(p=0.1)
          (relu): ReLU()
          (dropout_2): Dropout(p=0.1)
        )
        (layer_norm_1): LayerNorm(torch.Size([512]), eps=1e-06, elementwise_affine=True)
        (layer_norm_2): LayerNorm(torch.Size([512]), eps=1e-06, elementwise_affine=True)
        (drop): Dropout(p=0.1)
      )
      (5): TransformerDecoderLayer(
        (self_attn): MultiHeadedAttention(
          (linear_keys): Linear(in_features=512, out_features=512, bias=True)
          (linear_values): Sequential(
            (0): Linear(in_features=512, out_features=512, bias=True)
            (1): ReLU()
            (2): Linear(in_features=512, out_features=512, bias=True)
            (3): ReLU()
            (4): Linear(in_features=512, out_features=512, bias=True)
            (5): ReLU()
          )
          (linear_query): Linear(in_features=512, out_features=512, bias=True)
          (softmax): Softmax()
          (dropout): Dropout(p=0.1)
          (final_linear): Linear(in_features=512, out_features=512, bias=True)
        )
        (context_attn): MultiHeadedAttention(
          (linear_keys): Linear(in_features=512, out_features=512, bias=True)
          (linear_values): Sequential(
            (0): Linear(in_features=512, out_features=512, bias=True)
            (1): ReLU()
            (2): Linear(in_features=512, out_features=512, bias=True)
            (3): ReLU()
            (4): Linear(in_features=512, out_features=512, bias=True)
            (5): ReLU()
          )
          (linear_query): Linear(in_features=512, out_features=512, bias=True)
          (softmax): Softmax()
          (dropout): Dropout(p=0.1)
          (final_linear): Linear(in_features=512, out_features=512, bias=True)
        )
        (feed_forward): PositionwiseFeedForward(
          (w_1): Linear(in_features=512, out_features=2048, bias=True)
          (w_2): Linear(in_features=2048, out_features=512, bias=True)
          (layer_norm): LayerNorm(torch.Size([512]), eps=1e-06, elementwise_affine=True)
          (dropout_1): Dropout(p=0.1)
          (relu): ReLU()
          (dropout_2): Dropout(p=0.1)
        )
        (layer_norm_1): LayerNorm(torch.Size([512]), eps=1e-06, elementwise_affine=True)
        (layer_norm_2): LayerNorm(torch.Size([512]), eps=1e-06, elementwise_affine=True)
        (drop): Dropout(p=0.1)
      )
    )
    (layer_norm): LayerNorm(torch.Size([512]), eps=1e-06, elementwise_affine=True)
  )
  (generator): Sequential(
    (0): Linear(in_features=512, out_features=22641, bias=True)
    (1): Cast()
    (2): LogSoftmax()
  )
)
[2019-04-15 22:14:32,458 INFO] encoder: 30369792
[2019-04-15 22:14:32,458 INFO] decoder: 54735985
[2019-04-15 22:14:32,458 INFO] * number of parameters: 85105777
[2019-04-15 22:14:32,458 INFO] Starting training on GPU: [0]
[2019-04-15 22:14:32,458 INFO] Start training loop and validate every 1000 steps...
[2019-04-15 22:14:36,520 INFO] Loading dataset from data/en-de\demo.train.0.pt, number of examples: 418350
[2019-04-15 22:14:56,258 INFO]  * src vocab size = 16216
[2019-04-15 22:14:56,258 INFO]  * tgt vocab size = 22641
[2019-04-15 22:14:56,258 INFO] Building model...
[2019-04-15 22:14:58,867 INFO] NMTModel(
  (encoder): TransformerEncoder(
    (embeddings): Embeddings(
      (make_embedding): Sequential(
        (emb_luts): Elementwise(
          (0): Embedding(16216, 512, padding_idx=1)
        )
        (pe): PositionalEncoding(
          (dropout): Dropout(p=0.1)
        )
      )
    )
    (transformer): ModuleList(
      (0): TransformerEncoderLayer(
        (self_attn): MultiHeadedAttention(
          (linear_keys): Linear(in_features=512, out_features=512, bias=True)
          (linear_values): Sequential(
            (0): Linear(in_features=512, out_features=512, bias=True)
            (1): ReLU()
            (2): Linear(in_features=512, out_features=512, bias=True)
            (3): ReLU()
            (4): Linear(in_features=512, out_features=512, bias=True)
            (5): ReLU()
          )
          (linear_query): Linear(in_features=512, out_features=512, bias=True)
          (softmax): Softmax()
          (dropout): Dropout(p=0.1)
          (final_linear): Linear(in_features=512, out_features=512, bias=True)
        )
        (feed_forward): PositionwiseFeedForward(
          (w_1): Linear(in_features=512, out_features=2048, bias=True)
          (w_2): Linear(in_features=2048, out_features=512, bias=True)
          (layer_norm): LayerNorm(torch.Size([512]), eps=1e-06, elementwise_affine=True)
          (dropout_1): Dropout(p=0.1)
          (relu): ReLU()
          (dropout_2): Dropout(p=0.1)
        )
        (layer_norm): LayerNorm(torch.Size([512]), eps=1e-06, elementwise_affine=True)
        (dropout): Dropout(p=0.1)
      )
      (1): TransformerEncoderLayer(
        (self_attn): MultiHeadedAttention(
          (linear_keys): Linear(in_features=512, out_features=512, bias=True)
          (linear_values): Sequential(
            (0): Linear(in_features=512, out_features=512, bias=True)
            (1): ReLU()
            (2): Linear(in_features=512, out_features=512, bias=True)
            (3): ReLU()
            (4): Linear(in_features=512, out_features=512, bias=True)
            (5): ReLU()
          )
          (linear_query): Linear(in_features=512, out_features=512, bias=True)
          (softmax): Softmax()
          (dropout): Dropout(p=0.1)
          (final_linear): Linear(in_features=512, out_features=512, bias=True)
        )
        (feed_forward): PositionwiseFeedForward(
          (w_1): Linear(in_features=512, out_features=2048, bias=True)
          (w_2): Linear(in_features=2048, out_features=512, bias=True)
          (layer_norm): LayerNorm(torch.Size([512]), eps=1e-06, elementwise_affine=True)
          (dropout_1): Dropout(p=0.1)
          (relu): ReLU()
          (dropout_2): Dropout(p=0.1)
        )
        (layer_norm): LayerNorm(torch.Size([512]), eps=1e-06, elementwise_affine=True)
        (dropout): Dropout(p=0.1)
      )
      (2): TransformerEncoderLayer(
        (self_attn): MultiHeadedAttention(
          (linear_keys): Linear(in_features=512, out_features=512, bias=True)
          (linear_values): Sequential(
            (0): Linear(in_features=512, out_features=512, bias=True)
            (1): ReLU()
            (2): Linear(in_features=512, out_features=512, bias=True)
            (3): ReLU()
            (4): Linear(in_features=512, out_features=512, bias=True)
            (5): ReLU()
          )
          (linear_query): Linear(in_features=512, out_features=512, bias=True)
          (softmax): Softmax()
          (dropout): Dropout(p=0.1)
          (final_linear): Linear(in_features=512, out_features=512, bias=True)
        )
        (feed_forward): PositionwiseFeedForward(
          (w_1): Linear(in_features=512, out_features=2048, bias=True)
          (w_2): Linear(in_features=2048, out_features=512, bias=True)
          (layer_norm): LayerNorm(torch.Size([512]), eps=1e-06, elementwise_affine=True)
          (dropout_1): Dropout(p=0.1)
          (relu): ReLU()
          (dropout_2): Dropout(p=0.1)
        )
        (layer_norm): LayerNorm(torch.Size([512]), eps=1e-06, elementwise_affine=True)
        (dropout): Dropout(p=0.1)
      )
      (3): TransformerEncoderLayer(
        (self_attn): MultiHeadedAttention(
          (linear_keys): Linear(in_features=512, out_features=512, bias=True)
          (linear_values): Sequential(
            (0): Linear(in_features=512, out_features=512, bias=True)
            (1): ReLU()
            (2): Linear(in_features=512, out_features=512, bias=True)
            (3): ReLU()
            (4): Linear(in_features=512, out_features=512, bias=True)
            (5): ReLU()
          )
          (linear_query): Linear(in_features=512, out_features=512, bias=True)
          (softmax): Softmax()
          (dropout): Dropout(p=0.1)
          (final_linear): Linear(in_features=512, out_features=512, bias=True)
        )
        (feed_forward): PositionwiseFeedForward(
          (w_1): Linear(in_features=512, out_features=2048, bias=True)
          (w_2): Linear(in_features=2048, out_features=512, bias=True)
          (layer_norm): LayerNorm(torch.Size([512]), eps=1e-06, elementwise_affine=True)
          (dropout_1): Dropout(p=0.1)
          (relu): ReLU()
          (dropout_2): Dropout(p=0.1)
        )
        (layer_norm): LayerNorm(torch.Size([512]), eps=1e-06, elementwise_affine=True)
        (dropout): Dropout(p=0.1)
      )
      (4): TransformerEncoderLayer(
        (self_attn): MultiHeadedAttention(
          (linear_keys): Linear(in_features=512, out_features=512, bias=True)
          (linear_values): Sequential(
            (0): Linear(in_features=512, out_features=512, bias=True)
            (1): ReLU()
            (2): Linear(in_features=512, out_features=512, bias=True)
            (3): ReLU()
            (4): Linear(in_features=512, out_features=512, bias=True)
            (5): ReLU()
          )
          (linear_query): Linear(in_features=512, out_features=512, bias=True)
          (softmax): Softmax()
          (dropout): Dropout(p=0.1)
          (final_linear): Linear(in_features=512, out_features=512, bias=True)
        )
        (feed_forward): PositionwiseFeedForward(
          (w_1): Linear(in_features=512, out_features=2048, bias=True)
          (w_2): Linear(in_features=2048, out_features=512, bias=True)
          (layer_norm): LayerNorm(torch.Size([512]), eps=1e-06, elementwise_affine=True)
          (dropout_1): Dropout(p=0.1)
          (relu): ReLU()
          (dropout_2): Dropout(p=0.1)
        )
        (layer_norm): LayerNorm(torch.Size([512]), eps=1e-06, elementwise_affine=True)
        (dropout): Dropout(p=0.1)
      )
      (5): TransformerEncoderLayer(
        (self_attn): MultiHeadedAttention(
          (linear_keys): Linear(in_features=512, out_features=512, bias=True)
          (linear_values): Sequential(
            (0): Linear(in_features=512, out_features=512, bias=True)
            (1): ReLU()
            (2): Linear(in_features=512, out_features=512, bias=True)
            (3): ReLU()
            (4): Linear(in_features=512, out_features=512, bias=True)
            (5): ReLU()
          )
          (linear_query): Linear(in_features=512, out_features=512, bias=True)
          (softmax): Softmax()
          (dropout): Dropout(p=0.1)
          (final_linear): Linear(in_features=512, out_features=512, bias=True)
        )
        (feed_forward): PositionwiseFeedForward(
          (w_1): Linear(in_features=512, out_features=2048, bias=True)
          (w_2): Linear(in_features=2048, out_features=512, bias=True)
          (layer_norm): LayerNorm(torch.Size([512]), eps=1e-06, elementwise_affine=True)
          (dropout_1): Dropout(p=0.1)
          (relu): ReLU()
          (dropout_2): Dropout(p=0.1)
        )
        (layer_norm): LayerNorm(torch.Size([512]), eps=1e-06, elementwise_affine=True)
        (dropout): Dropout(p=0.1)
      )
    )
    (layer_norm): LayerNorm(torch.Size([512]), eps=1e-06, elementwise_affine=True)
  )
  (decoder): TransformerDecoder(
    (embeddings): Embeddings(
      (make_embedding): Sequential(
        (emb_luts): Elementwise(
          (0): Embedding(22641, 512, padding_idx=1)
        )
        (pe): PositionalEncoding(
          (dropout): Dropout(p=0.1)
        )
      )
    )
    (transformer_layers): ModuleList(
      (0): TransformerDecoderLayer(
        (self_attn): MultiHeadedAttention(
          (linear_keys): Linear(in_features=512, out_features=512, bias=True)
          (linear_values): Sequential(
            (0): Linear(in_features=512, out_features=512, bias=True)
            (1): ReLU()
            (2): Linear(in_features=512, out_features=512, bias=True)
            (3): ReLU()
            (4): Linear(in_features=512, out_features=512, bias=True)
            (5): ReLU()
          )
          (linear_query): Linear(in_features=512, out_features=512, bias=True)
          (softmax): Softmax()
          (dropout): Dropout(p=0.1)
          (final_linear): Linear(in_features=512, out_features=512, bias=True)
        )
        (context_attn): MultiHeadedAttention(
          (linear_keys): Linear(in_features=512, out_features=512, bias=True)
          (linear_values): Sequential(
            (0): Linear(in_features=512, out_features=512, bias=True)
            (1): ReLU()
            (2): Linear(in_features=512, out_features=512, bias=True)
            (3): ReLU()
            (4): Linear(in_features=512, out_features=512, bias=True)
            (5): ReLU()
          )
          (linear_query): Linear(in_features=512, out_features=512, bias=True)
          (softmax): Softmax()
          (dropout): Dropout(p=0.1)
          (final_linear): Linear(in_features=512, out_features=512, bias=True)
        )
        (feed_forward): PositionwiseFeedForward(
          (w_1): Linear(in_features=512, out_features=2048, bias=True)
          (w_2): Linear(in_features=2048, out_features=512, bias=True)
          (layer_norm): LayerNorm(torch.Size([512]), eps=1e-06, elementwise_affine=True)
          (dropout_1): Dropout(p=0.1)
          (relu): ReLU()
          (dropout_2): Dropout(p=0.1)
        )
        (layer_norm_1): LayerNorm(torch.Size([512]), eps=1e-06, elementwise_affine=True)
        (layer_norm_2): LayerNorm(torch.Size([512]), eps=1e-06, elementwise_affine=True)
        (drop): Dropout(p=0.1)
      )
      (1): TransformerDecoderLayer(
        (self_attn): MultiHeadedAttention(
          (linear_keys): Linear(in_features=512, out_features=512, bias=True)
          (linear_values): Sequential(
            (0): Linear(in_features=512, out_features=512, bias=True)
            (1): ReLU()
            (2): Linear(in_features=512, out_features=512, bias=True)
            (3): ReLU()
            (4): Linear(in_features=512, out_features=512, bias=True)
            (5): ReLU()
          )
          (linear_query): Linear(in_features=512, out_features=512, bias=True)
          (softmax): Softmax()
          (dropout): Dropout(p=0.1)
          (final_linear): Linear(in_features=512, out_features=512, bias=True)
        )
        (context_attn): MultiHeadedAttention(
          (linear_keys): Linear(in_features=512, out_features=512, bias=True)
          (linear_values): Sequential(
            (0): Linear(in_features=512, out_features=512, bias=True)
            (1): ReLU()
            (2): Linear(in_features=512, out_features=512, bias=True)
            (3): ReLU()
            (4): Linear(in_features=512, out_features=512, bias=True)
            (5): ReLU()
          )
          (linear_query): Linear(in_features=512, out_features=512, bias=True)
          (softmax): Softmax()
          (dropout): Dropout(p=0.1)
          (final_linear): Linear(in_features=512, out_features=512, bias=True)
        )
        (feed_forward): PositionwiseFeedForward(
          (w_1): Linear(in_features=512, out_features=2048, bias=True)
          (w_2): Linear(in_features=2048, out_features=512, bias=True)
          (layer_norm): LayerNorm(torch.Size([512]), eps=1e-06, elementwise_affine=True)
          (dropout_1): Dropout(p=0.1)
          (relu): ReLU()
          (dropout_2): Dropout(p=0.1)
        )
        (layer_norm_1): LayerNorm(torch.Size([512]), eps=1e-06, elementwise_affine=True)
        (layer_norm_2): LayerNorm(torch.Size([512]), eps=1e-06, elementwise_affine=True)
        (drop): Dropout(p=0.1)
      )
      (2): TransformerDecoderLayer(
        (self_attn): MultiHeadedAttention(
          (linear_keys): Linear(in_features=512, out_features=512, bias=True)
          (linear_values): Sequential(
            (0): Linear(in_features=512, out_features=512, bias=True)
            (1): ReLU()
            (2): Linear(in_features=512, out_features=512, bias=True)
            (3): ReLU()
            (4): Linear(in_features=512, out_features=512, bias=True)
            (5): ReLU()
          )
          (linear_query): Linear(in_features=512, out_features=512, bias=True)
          (softmax): Softmax()
          (dropout): Dropout(p=0.1)
          (final_linear): Linear(in_features=512, out_features=512, bias=True)
        )
        (context_attn): MultiHeadedAttention(
          (linear_keys): Linear(in_features=512, out_features=512, bias=True)
          (linear_values): Sequential(
            (0): Linear(in_features=512, out_features=512, bias=True)
            (1): ReLU()
            (2): Linear(in_features=512, out_features=512, bias=True)
            (3): ReLU()
            (4): Linear(in_features=512, out_features=512, bias=True)
            (5): ReLU()
          )
          (linear_query): Linear(in_features=512, out_features=512, bias=True)
          (softmax): Softmax()
          (dropout): Dropout(p=0.1)
          (final_linear): Linear(in_features=512, out_features=512, bias=True)
        )
        (feed_forward): PositionwiseFeedForward(
          (w_1): Linear(in_features=512, out_features=2048, bias=True)
          (w_2): Linear(in_features=2048, out_features=512, bias=True)
          (layer_norm): LayerNorm(torch.Size([512]), eps=1e-06, elementwise_affine=True)
          (dropout_1): Dropout(p=0.1)
          (relu): ReLU()
          (dropout_2): Dropout(p=0.1)
        )
        (layer_norm_1): LayerNorm(torch.Size([512]), eps=1e-06, elementwise_affine=True)
        (layer_norm_2): LayerNorm(torch.Size([512]), eps=1e-06, elementwise_affine=True)
        (drop): Dropout(p=0.1)
      )
      (3): TransformerDecoderLayer(
        (self_attn): MultiHeadedAttention(
          (linear_keys): Linear(in_features=512, out_features=512, bias=True)
          (linear_values): Sequential(
            (0): Linear(in_features=512, out_features=512, bias=True)
            (1): ReLU()
            (2): Linear(in_features=512, out_features=512, bias=True)
            (3): ReLU()
            (4): Linear(in_features=512, out_features=512, bias=True)
            (5): ReLU()
          )
          (linear_query): Linear(in_features=512, out_features=512, bias=True)
          (softmax): Softmax()
          (dropout): Dropout(p=0.1)
          (final_linear): Linear(in_features=512, out_features=512, bias=True)
        )
        (context_attn): MultiHeadedAttention(
          (linear_keys): Linear(in_features=512, out_features=512, bias=True)
          (linear_values): Sequential(
            (0): Linear(in_features=512, out_features=512, bias=True)
            (1): ReLU()
            (2): Linear(in_features=512, out_features=512, bias=True)
            (3): ReLU()
            (4): Linear(in_features=512, out_features=512, bias=True)
            (5): ReLU()
          )
          (linear_query): Linear(in_features=512, out_features=512, bias=True)
          (softmax): Softmax()
          (dropout): Dropout(p=0.1)
          (final_linear): Linear(in_features=512, out_features=512, bias=True)
        )
        (feed_forward): PositionwiseFeedForward(
          (w_1): Linear(in_features=512, out_features=2048, bias=True)
          (w_2): Linear(in_features=2048, out_features=512, bias=True)
          (layer_norm): LayerNorm(torch.Size([512]), eps=1e-06, elementwise_affine=True)
          (dropout_1): Dropout(p=0.1)
          (relu): ReLU()
          (dropout_2): Dropout(p=0.1)
        )
        (layer_norm_1): LayerNorm(torch.Size([512]), eps=1e-06, elementwise_affine=True)
        (layer_norm_2): LayerNorm(torch.Size([512]), eps=1e-06, elementwise_affine=True)
        (drop): Dropout(p=0.1)
      )
      (4): TransformerDecoderLayer(
        (self_attn): MultiHeadedAttention(
          (linear_keys): Linear(in_features=512, out_features=512, bias=True)
          (linear_values): Sequential(
            (0): Linear(in_features=512, out_features=512, bias=True)
            (1): ReLU()
            (2): Linear(in_features=512, out_features=512, bias=True)
            (3): ReLU()
            (4): Linear(in_features=512, out_features=512, bias=True)
            (5): ReLU()
          )
          (linear_query): Linear(in_features=512, out_features=512, bias=True)
          (softmax): Softmax()
          (dropout): Dropout(p=0.1)
          (final_linear): Linear(in_features=512, out_features=512, bias=True)
        )
        (context_attn): MultiHeadedAttention(
          (linear_keys): Linear(in_features=512, out_features=512, bias=True)
          (linear_values): Sequential(
            (0): Linear(in_features=512, out_features=512, bias=True)
            (1): ReLU()
            (2): Linear(in_features=512, out_features=512, bias=True)
            (3): ReLU()
            (4): Linear(in_features=512, out_features=512, bias=True)
            (5): ReLU()
          )
          (linear_query): Linear(in_features=512, out_features=512, bias=True)
          (softmax): Softmax()
          (dropout): Dropout(p=0.1)
          (final_linear): Linear(in_features=512, out_features=512, bias=True)
        )
        (feed_forward): PositionwiseFeedForward(
          (w_1): Linear(in_features=512, out_features=2048, bias=True)
          (w_2): Linear(in_features=2048, out_features=512, bias=True)
          (layer_norm): LayerNorm(torch.Size([512]), eps=1e-06, elementwise_affine=True)
          (dropout_1): Dropout(p=0.1)
          (relu): ReLU()
          (dropout_2): Dropout(p=0.1)
        )
        (layer_norm_1): LayerNorm(torch.Size([512]), eps=1e-06, elementwise_affine=True)
        (layer_norm_2): LayerNorm(torch.Size([512]), eps=1e-06, elementwise_affine=True)
        (drop): Dropout(p=0.1)
      )
      (5): TransformerDecoderLayer(
        (self_attn): MultiHeadedAttention(
          (linear_keys): Linear(in_features=512, out_features=512, bias=True)
          (linear_values): Sequential(
            (0): Linear(in_features=512, out_features=512, bias=True)
            (1): ReLU()
            (2): Linear(in_features=512, out_features=512, bias=True)
            (3): ReLU()
            (4): Linear(in_features=512, out_features=512, bias=True)
            (5): ReLU()
          )
          (linear_query): Linear(in_features=512, out_features=512, bias=True)
          (softmax): Softmax()
          (dropout): Dropout(p=0.1)
          (final_linear): Linear(in_features=512, out_features=512, bias=True)
        )
        (context_attn): MultiHeadedAttention(
          (linear_keys): Linear(in_features=512, out_features=512, bias=True)
          (linear_values): Sequential(
            (0): Linear(in_features=512, out_features=512, bias=True)
            (1): ReLU()
            (2): Linear(in_features=512, out_features=512, bias=True)
            (3): ReLU()
            (4): Linear(in_features=512, out_features=512, bias=True)
            (5): ReLU()
          )
          (linear_query): Linear(in_features=512, out_features=512, bias=True)
          (softmax): Softmax()
          (dropout): Dropout(p=0.1)
          (final_linear): Linear(in_features=512, out_features=512, bias=True)
        )
        (feed_forward): PositionwiseFeedForward(
          (w_1): Linear(in_features=512, out_features=2048, bias=True)
          (w_2): Linear(in_features=2048, out_features=512, bias=True)
          (layer_norm): LayerNorm(torch.Size([512]), eps=1e-06, elementwise_affine=True)
          (dropout_1): Dropout(p=0.1)
          (relu): ReLU()
          (dropout_2): Dropout(p=0.1)
        )
        (layer_norm_1): LayerNorm(torch.Size([512]), eps=1e-06, elementwise_affine=True)
        (layer_norm_2): LayerNorm(torch.Size([512]), eps=1e-06, elementwise_affine=True)
        (drop): Dropout(p=0.1)
      )
    )
    (layer_norm): LayerNorm(torch.Size([512]), eps=1e-06, elementwise_affine=True)
  )
  (generator): Sequential(
    (0): Linear(in_features=512, out_features=22641, bias=True)
    (1): Cast()
    (2): LogSoftmax()
  )
)
[2019-04-15 22:14:58,882 INFO] encoder: 30369792
[2019-04-15 22:14:58,882 INFO] decoder: 54735985
[2019-04-15 22:14:58,882 INFO] * number of parameters: 85105777
[2019-04-15 22:14:58,882 INFO] Starting training on GPU: [0]
[2019-04-15 22:14:58,882 INFO] Start training loop and validate every 1000 steps...
…
[2019-04-15 22:16:11,576 INFO] Step 50/20000; acc:   2.72; ppl: 4931.94; xent: 8.50; lr: 0.00002; 13932/15189 tok/s;     73 sec
[2019-04-15 22:17:17,064 INFO] Step 100/20000; acc:   4.88; ppl: 2887.15; xent: 7.97; lr: 0.00004; 15220/16512 tok/s;    138 sec
[2019-04-15 22:18:18,472 INFO]  * src vocab size = 16216
[2019-04-15 22:18:18,472 INFO]  * tgt vocab size = 22641
[2019-04-15 22:18:18,472 INFO] Building model...
[2019-04-15 22:18:21,253 INFO] NMTModel(
  (encoder): TransformerEncoder(
    (embeddings): Embeddings(
      (make_embedding): Sequential(
        (emb_luts): Elementwise(
          (0): Embedding(16216, 512, padding_idx=1)
        )
        (pe): PositionalEncoding(
          (dropout): Dropout(p=0.1)
        )
      )
    )
    (transformer): ModuleList(
      (0): TransformerEncoderLayer(
        (self_attn): MultiHeadedAttention(
          (linear_keys): Linear(in_features=512, out_features=512, bias=True)
          (linear_values): Sequential(
            (0): Linear(in_features=512, out_features=512, bias=True)
            (1): ReLU()
            (2): Linear(in_features=512, out_features=512, bias=True)
            (3): ReLU()
            (4): Linear(in_features=512, out_features=512, bias=True)
            (5): ReLU()
          )
          (linear_query): Linear(in_features=512, out_features=512, bias=True)
          (softmax): Softmax()
          (dropout): Dropout(p=0.1)
          (final_linear): Linear(in_features=512, out_features=512, bias=True)
        )
        (feed_forward): PositionwiseFeedForward(
          (w_1): Linear(in_features=512, out_features=2048, bias=True)
          (w_2): Linear(in_features=2048, out_features=512, bias=True)
          (layer_norm): LayerNorm(torch.Size([512]), eps=1e-06, elementwise_affine=True)
          (dropout_1): Dropout(p=0.1)
          (relu): ReLU()
          (dropout_2): Dropout(p=0.1)
        )
        (layer_norm): LayerNorm(torch.Size([512]), eps=1e-06, elementwise_affine=True)
        (dropout): Dropout(p=0.1)
      )
      (1): TransformerEncoderLayer(
        (self_attn): MultiHeadedAttention(
          (linear_keys): Linear(in_features=512, out_features=512, bias=True)
          (linear_values): Sequential(
            (0): Linear(in_features=512, out_features=512, bias=True)
            (1): ReLU()
            (2): Linear(in_features=512, out_features=512, bias=True)
            (3): ReLU()
            (4): Linear(in_features=512, out_features=512, bias=True)
            (5): ReLU()
          )
          (linear_query): Linear(in_features=512, out_features=512, bias=True)
          (softmax): Softmax()
          (dropout): Dropout(p=0.1)
          (final_linear): Linear(in_features=512, out_features=512, bias=True)
        )
        (feed_forward): PositionwiseFeedForward(
          (w_1): Linear(in_features=512, out_features=2048, bias=True)
          (w_2): Linear(in_features=2048, out_features=512, bias=True)
          (layer_norm): LayerNorm(torch.Size([512]), eps=1e-06, elementwise_affine=True)
          (dropout_1): Dropout(p=0.1)
          (relu): ReLU()
          (dropout_2): Dropout(p=0.1)
        )
        (layer_norm): LayerNorm(torch.Size([512]), eps=1e-06, elementwise_affine=True)
        (dropout): Dropout(p=0.1)
      )
      (2): TransformerEncoderLayer(
        (self_attn): MultiHeadedAttention(
          (linear_keys): Linear(in_features=512, out_features=512, bias=True)
          (linear_values): Sequential(
            (0): Linear(in_features=512, out_features=512, bias=True)
            (1): ReLU()
            (2): Linear(in_features=512, out_features=512, bias=True)
            (3): ReLU()
            (4): Linear(in_features=512, out_features=512, bias=True)
            (5): ReLU()
          )
          (linear_query): Linear(in_features=512, out_features=512, bias=True)
          (softmax): Softmax()
          (dropout): Dropout(p=0.1)
          (final_linear): Linear(in_features=512, out_features=512, bias=True)
        )
        (feed_forward): PositionwiseFeedForward(
          (w_1): Linear(in_features=512, out_features=2048, bias=True)
          (w_2): Linear(in_features=2048, out_features=512, bias=True)
          (layer_norm): LayerNorm(torch.Size([512]), eps=1e-06, elementwise_affine=True)
          (dropout_1): Dropout(p=0.1)
          (relu): ReLU()
          (dropout_2): Dropout(p=0.1)
        )
        (layer_norm): LayerNorm(torch.Size([512]), eps=1e-06, elementwise_affine=True)
        (dropout): Dropout(p=0.1)
      )
      (3): TransformerEncoderLayer(
        (self_attn): MultiHeadedAttention(
          (linear_keys): Linear(in_features=512, out_features=512, bias=True)
          (linear_values): Sequential(
            (0): Linear(in_features=512, out_features=512, bias=True)
            (1): ReLU()
            (2): Linear(in_features=512, out_features=512, bias=True)
            (3): ReLU()
            (4): Linear(in_features=512, out_features=512, bias=True)
            (5): ReLU()
          )
          (linear_query): Linear(in_features=512, out_features=512, bias=True)
          (softmax): Softmax()
          (dropout): Dropout(p=0.1)
          (final_linear): Linear(in_features=512, out_features=512, bias=True)
        )
        (feed_forward): PositionwiseFeedForward(
          (w_1): Linear(in_features=512, out_features=2048, bias=True)
          (w_2): Linear(in_features=2048, out_features=512, bias=True)
          (layer_norm): LayerNorm(torch.Size([512]), eps=1e-06, elementwise_affine=True)
          (dropout_1): Dropout(p=0.1)
          (relu): ReLU()
          (dropout_2): Dropout(p=0.1)
        )
        (layer_norm): LayerNorm(torch.Size([512]), eps=1e-06, elementwise_affine=True)
        (dropout): Dropout(p=0.1)
      )
      (4): TransformerEncoderLayer(
        (self_attn): MultiHeadedAttention(
          (linear_keys): Linear(in_features=512, out_features=512, bias=True)
          (linear_values): Sequential(
            (0): Linear(in_features=512, out_features=512, bias=True)
            (1): ReLU()
            (2): Linear(in_features=512, out_features=512, bias=True)
            (3): ReLU()
            (4): Linear(in_features=512, out_features=512, bias=True)
            (5): ReLU()
          )
          (linear_query): Linear(in_features=512, out_features=512, bias=True)
          (softmax): Softmax()
          (dropout): Dropout(p=0.1)
          (final_linear): Linear(in_features=512, out_features=512, bias=True)
        )
        (feed_forward): PositionwiseFeedForward(
          (w_1): Linear(in_features=512, out_features=2048, bias=True)
          (w_2): Linear(in_features=2048, out_features=512, bias=True)
          (layer_norm): LayerNorm(torch.Size([512]), eps=1e-06, elementwise_affine=True)
          (dropout_1): Dropout(p=0.1)
          (relu): ReLU()
          (dropout_2): Dropout(p=0.1)
        )
        (layer_norm): LayerNorm(torch.Size([512]), eps=1e-06, elementwise_affine=True)
        (dropout): Dropout(p=0.1)
      )
      (5): TransformerEncoderLayer(
        (self_attn): MultiHeadedAttention(
          (linear_keys): Linear(in_features=512, out_features=512, bias=True)
          (linear_values): Sequential(
            (0): Linear(in_features=512, out_features=512, bias=True)
            (1): ReLU()
            (2): Linear(in_features=512, out_features=512, bias=True)
            (3): ReLU()
            (4): Linear(in_features=512, out_features=512, bias=True)
            (5): ReLU()
          )
          (linear_query): Linear(in_features=512, out_features=512, bias=True)
          (softmax): Softmax()
          (dropout): Dropout(p=0.1)
          (final_linear): Linear(in_features=512, out_features=512, bias=True)
        )
        (feed_forward): PositionwiseFeedForward(
          (w_1): Linear(in_features=512, out_features=2048, bias=True)
          (w_2): Linear(in_features=2048, out_features=512, bias=True)
          (layer_norm): LayerNorm(torch.Size([512]), eps=1e-06, elementwise_affine=True)
          (dropout_1): Dropout(p=0.1)
          (relu): ReLU()
          (dropout_2): Dropout(p=0.1)
        )
        (layer_norm): LayerNorm(torch.Size([512]), eps=1e-06, elementwise_affine=True)
        (dropout): Dropout(p=0.1)
      )
    )
    (layer_norm): LayerNorm(torch.Size([512]), eps=1e-06, elementwise_affine=True)
  )
  (decoder): TransformerDecoder(
    (embeddings): Embeddings(
      (make_embedding): Sequential(
        (emb_luts): Elementwise(
          (0): Embedding(22641, 512, padding_idx=1)
        )
        (pe): PositionalEncoding(
          (dropout): Dropout(p=0.1)
        )
      )
    )
    (transformer_layers): ModuleList(
      (0): TransformerDecoderLayer(
        (self_attn): MultiHeadedAttention(
          (linear_keys): Linear(in_features=512, out_features=512, bias=True)
          (linear_values): Sequential(
            (0): Linear(in_features=512, out_features=512, bias=True)
            (1): ReLU()
            (2): Linear(in_features=512, out_features=512, bias=True)
            (3): ReLU()
            (4): Linear(in_features=512, out_features=512, bias=True)
            (5): ReLU()
          )
          (linear_query): Linear(in_features=512, out_features=512, bias=True)
          (softmax): Softmax()
          (dropout): Dropout(p=0.1)
          (final_linear): Linear(in_features=512, out_features=512, bias=True)
        )
        (context_attn): MultiHeadedAttention(
          (linear_keys): Linear(in_features=512, out_features=512, bias=True)
          (linear_values): Sequential(
            (0): Linear(in_features=512, out_features=512, bias=True)
            (1): ReLU()
            (2): Linear(in_features=512, out_features=512, bias=True)
            (3): ReLU()
            (4): Linear(in_features=512, out_features=512, bias=True)
            (5): ReLU()
          )
          (linear_query): Linear(in_features=512, out_features=512, bias=True)
          (softmax): Softmax()
          (dropout): Dropout(p=0.1)
          (final_linear): Linear(in_features=512, out_features=512, bias=True)
        )
        (feed_forward): PositionwiseFeedForward(
          (w_1): Linear(in_features=512, out_features=2048, bias=True)
          (w_2): Linear(in_features=2048, out_features=512, bias=True)
          (layer_norm): LayerNorm(torch.Size([512]), eps=1e-06, elementwise_affine=True)
          (dropout_1): Dropout(p=0.1)
          (relu): ReLU()
          (dropout_2): Dropout(p=0.1)
        )
        (layer_norm_1): LayerNorm(torch.Size([512]), eps=1e-06, elementwise_affine=True)
        (layer_norm_2): LayerNorm(torch.Size([512]), eps=1e-06, elementwise_affine=True)
        (drop): Dropout(p=0.1)
      )
      (1): TransformerDecoderLayer(
        (self_attn): MultiHeadedAttention(
          (linear_keys): Linear(in_features=512, out_features=512, bias=True)
          (linear_values): Sequential(
            (0): Linear(in_features=512, out_features=512, bias=True)
            (1): ReLU()
            (2): Linear(in_features=512, out_features=512, bias=True)
            (3): ReLU()
            (4): Linear(in_features=512, out_features=512, bias=True)
            (5): ReLU()
          )
          (linear_query): Linear(in_features=512, out_features=512, bias=True)
          (softmax): Softmax()
          (dropout): Dropout(p=0.1)
          (final_linear): Linear(in_features=512, out_features=512, bias=True)
        )
        (context_attn): MultiHeadedAttention(
          (linear_keys): Linear(in_features=512, out_features=512, bias=True)
          (linear_values): Sequential(
            (0): Linear(in_features=512, out_features=512, bias=True)
            (1): ReLU()
            (2): Linear(in_features=512, out_features=512, bias=True)
            (3): ReLU()
            (4): Linear(in_features=512, out_features=512, bias=True)
            (5): ReLU()
          )
          (linear_query): Linear(in_features=512, out_features=512, bias=True)
          (softmax): Softmax()
          (dropout): Dropout(p=0.1)
          (final_linear): Linear(in_features=512, out_features=512, bias=True)
        )
        (feed_forward): PositionwiseFeedForward(
          (w_1): Linear(in_features=512, out_features=2048, bias=True)
          (w_2): Linear(in_features=2048, out_features=512, bias=True)
          (layer_norm): LayerNorm(torch.Size([512]), eps=1e-06, elementwise_affine=True)
          (dropout_1): Dropout(p=0.1)
          (relu): ReLU()
          (dropout_2): Dropout(p=0.1)
        )
        (layer_norm_1): LayerNorm(torch.Size([512]), eps=1e-06, elementwise_affine=True)
        (layer_norm_2): LayerNorm(torch.Size([512]), eps=1e-06, elementwise_affine=True)
        (drop): Dropout(p=0.1)
      )
      (2): TransformerDecoderLayer(
        (self_attn): MultiHeadedAttention(
          (linear_keys): Linear(in_features=512, out_features=512, bias=True)
          (linear_values): Sequential(
            (0): Linear(in_features=512, out_features=512, bias=True)
            (1): ReLU()
            (2): Linear(in_features=512, out_features=512, bias=True)
            (3): ReLU()
            (4): Linear(in_features=512, out_features=512, bias=True)
            (5): ReLU()
          )
          (linear_query): Linear(in_features=512, out_features=512, bias=True)
          (softmax): Softmax()
          (dropout): Dropout(p=0.1)
          (final_linear): Linear(in_features=512, out_features=512, bias=True)
        )
        (context_attn): MultiHeadedAttention(
          (linear_keys): Linear(in_features=512, out_features=512, bias=True)
          (linear_values): Sequential(
            (0): Linear(in_features=512, out_features=512, bias=True)
            (1): ReLU()
            (2): Linear(in_features=512, out_features=512, bias=True)
            (3): ReLU()
            (4): Linear(in_features=512, out_features=512, bias=True)
            (5): ReLU()
          )
          (linear_query): Linear(in_features=512, out_features=512, bias=True)
          (softmax): Softmax()
          (dropout): Dropout(p=0.1)
          (final_linear): Linear(in_features=512, out_features=512, bias=True)
        )
        (feed_forward): PositionwiseFeedForward(
          (w_1): Linear(in_features=512, out_features=2048, bias=True)
          (w_2): Linear(in_features=2048, out_features=512, bias=True)
          (layer_norm): LayerNorm(torch.Size([512]), eps=1e-06, elementwise_affine=True)
          (dropout_1): Dropout(p=0.1)
          (relu): ReLU()
          (dropout_2): Dropout(p=0.1)
        )
        (layer_norm_1): LayerNorm(torch.Size([512]), eps=1e-06, elementwise_affine=True)
        (layer_norm_2): LayerNorm(torch.Size([512]), eps=1e-06, elementwise_affine=True)
        (drop): Dropout(p=0.1)
      )
      (3): TransformerDecoderLayer(
        (self_attn): MultiHeadedAttention(
          (linear_keys): Linear(in_features=512, out_features=512, bias=True)
          (linear_values): Sequential(
            (0): Linear(in_features=512, out_features=512, bias=True)
            (1): ReLU()
            (2): Linear(in_features=512, out_features=512, bias=True)
            (3): ReLU()
            (4): Linear(in_features=512, out_features=512, bias=True)
            (5): ReLU()
          )
          (linear_query): Linear(in_features=512, out_features=512, bias=True)
          (softmax): Softmax()
          (dropout): Dropout(p=0.1)
          (final_linear): Linear(in_features=512, out_features=512, bias=True)
        )
        (context_attn): MultiHeadedAttention(
          (linear_keys): Linear(in_features=512, out_features=512, bias=True)
          (linear_values): Sequential(
            (0): Linear(in_features=512, out_features=512, bias=True)
            (1): ReLU()
            (2): Linear(in_features=512, out_features=512, bias=True)
            (3): ReLU()
            (4): Linear(in_features=512, out_features=512, bias=True)
            (5): ReLU()
          )
          (linear_query): Linear(in_features=512, out_features=512, bias=True)
          (softmax): Softmax()
          (dropout): Dropout(p=0.1)
          (final_linear): Linear(in_features=512, out_features=512, bias=True)
        )
        (feed_forward): PositionwiseFeedForward(
          (w_1): Linear(in_features=512, out_features=2048, bias=True)
          (w_2): Linear(in_features=2048, out_features=512, bias=True)
          (layer_norm): LayerNorm(torch.Size([512]), eps=1e-06, elementwise_affine=True)
          (dropout_1): Dropout(p=0.1)
          (relu): ReLU()
          (dropout_2): Dropout(p=0.1)
        )
        (layer_norm_1): LayerNorm(torch.Size([512]), eps=1e-06, elementwise_affine=True)
        (layer_norm_2): LayerNorm(torch.Size([512]), eps=1e-06, elementwise_affine=True)
        (drop): Dropout(p=0.1)
      )
      (4): TransformerDecoderLayer(
        (self_attn): MultiHeadedAttention(
          (linear_keys): Linear(in_features=512, out_features=512, bias=True)
          (linear_values): Sequential(
            (0): Linear(in_features=512, out_features=512, bias=True)
            (1): ReLU()
            (2): Linear(in_features=512, out_features=512, bias=True)
            (3): ReLU()
            (4): Linear(in_features=512, out_features=512, bias=True)
            (5): ReLU()
          )
          (linear_query): Linear(in_features=512, out_features=512, bias=True)
          (softmax): Softmax()
          (dropout): Dropout(p=0.1)
          (final_linear): Linear(in_features=512, out_features=512, bias=True)
        )
        (context_attn): MultiHeadedAttention(
          (linear_keys): Linear(in_features=512, out_features=512, bias=True)
          (linear_values): Sequential(
            (0): Linear(in_features=512, out_features=512, bias=True)
            (1): ReLU()
            (2): Linear(in_features=512, out_features=512, bias=True)
            (3): ReLU()
            (4): Linear(in_features=512, out_features=512, bias=True)
            (5): ReLU()
          )
          (linear_query): Linear(in_features=512, out_features=512, bias=True)
          (softmax): Softmax()
          (dropout): Dropout(p=0.1)
          (final_linear): Linear(in_features=512, out_features=512, bias=True)
        )
        (feed_forward): PositionwiseFeedForward(
          (w_1): Linear(in_features=512, out_features=2048, bias=True)
          (w_2): Linear(in_features=2048, out_features=512, bias=True)
          (layer_norm): LayerNorm(torch.Size([512]), eps=1e-06, elementwise_affine=True)
          (dropout_1): Dropout(p=0.1)
          (relu): ReLU()
          (dropout_2): Dropout(p=0.1)
        )
        (layer_norm_1): LayerNorm(torch.Size([512]), eps=1e-06, elementwise_affine=True)
        (layer_norm_2): LayerNorm(torch.Size([512]), eps=1e-06, elementwise_affine=True)
        (drop): Dropout(p=0.1)
      )
      (5): TransformerDecoderLayer(
        (self_attn): MultiHeadedAttention(
          (linear_keys): Linear(in_features=512, out_features=512, bias=True)
          (linear_values): Sequential(
            (0): Linear(in_features=512, out_features=512, bias=True)
            (1): ReLU()
            (2): Linear(in_features=512, out_features=512, bias=True)
            (3): ReLU()
            (4): Linear(in_features=512, out_features=512, bias=True)
            (5): ReLU()
          )
          (linear_query): Linear(in_features=512, out_features=512, bias=True)
          (softmax): Softmax()
          (dropout): Dropout(p=0.1)
          (final_linear): Linear(in_features=512, out_features=512, bias=True)
        )
        (context_attn): MultiHeadedAttention(
          (linear_keys): Linear(in_features=512, out_features=512, bias=True)
          (linear_values): Sequential(
            (0): Linear(in_features=512, out_features=512, bias=True)
            (1): ReLU()
            (2): Linear(in_features=512, out_features=512, bias=True)
            (3): ReLU()
            (4): Linear(in_features=512, out_features=512, bias=True)
            (5): ReLU()
          )
          (linear_query): Linear(in_features=512, out_features=512, bias=True)
          (softmax): Softmax()
          (dropout): Dropout(p=0.1)
          (final_linear): Linear(in_features=512, out_features=512, bias=True)
        )
        (feed_forward): PositionwiseFeedForward(
          (w_1): Linear(in_features=512, out_features=2048, bias=True)
          (w_2): Linear(in_features=2048, out_features=512, bias=True)
          (layer_norm): LayerNorm(torch.Size([512]), eps=1e-06, elementwise_affine=True)
          (dropout_1): Dropout(p=0.1)
          (relu): ReLU()
          (dropout_2): Dropout(p=0.1)
        )
        (layer_norm_1): LayerNorm(torch.Size([512]), eps=1e-06, elementwise_affine=True)
        (layer_norm_2): LayerNorm(torch.Size([512]), eps=1e-06, elementwise_affine=True)
        (drop): Dropout(p=0.1)
      )
    )
    (layer_norm): LayerNorm(torch.Size([512]), eps=1e-06, elementwise_affine=True)
  )
  (generator): Sequential(
    (0): Linear(in_features=512, out_features=22641, bias=True)
    (1): Cast()
    (2): LogSoftmax()
  )
)
[2019-04-15 22:18:21,268 INFO] encoder: 30369792
[2019-04-15 22:18:21,268 INFO] decoder: 54735985
[2019-04-15 22:18:21,268 INFO] * number of parameters: 85105777
[2019-04-15 22:18:21,268 INFO] Starting training on GPU: [0]
[2019-04-15 22:18:21,268 INFO] Start training loop and validate every 50 steps...
…
